…
        "model.add(GlobalMaxPooling1D())\n",
        "\n",
        "model.add(Dense(2,activation=\"softmax\"))\n",
        "\n",
        "model.summary()"
      ],
      "execution_count": null,
      "outputs": [
        {
          "output_type": "stream",
          "name": "stdout",
          "text": [
            "Model: \"sequential\"\n",
            "_________________________________________________________________\n",
            "Layer (type)                 Output Shape              Param #   \n",
            "=================================================================\n",
            "embedding (Embedding)        (None, 100, 300)          3980400   \n",
            "_________________________________________________________________\n",
            "conv1d (Conv1D)              (None, 93, 64)            153664    \n",
            "_________________________________________________________________\n",
            "max_pooling1d (MaxPooling1D) (None, 46, 64)            0         \n",
            "_________________________________________________________________\n",
            "dropout (Dropout)            (None, 46, 64)            0         \n",
            "_________________________________________________________________\n",
            "dense (Dense)                (None, 46, 32)            2080      \n",
            "_________________________________________________________________\n",
            "dropout_1 (Dropout)          (None, 46, 32)            0         \n",
            "_________________________________________________________________\n",
            "dense_1 (Dense)              (None, 46, 16)            528       \n",
            "_________________________________________________________________\n",
            "global_max_pooling1d (Global (None, 16)                0         \n",
            "_________________________________________________________________\n",
            "dense_2 (Dense)              (None, 2)                 34        \n",
            "=================================================================\n",
            "Total params: 4,136,706\n",
            "Trainable params: 4,136,706\n",
            "Non-trainable params: 0\n",
            "_________________________________________________________________\n"
          ]
        }
      ]
    },
    {
      "cell_type": "code",
      "metadata": {
        "id": "g733dI0ivLWK"
…
